CodeBERT/Clone-Detection/checkpoints/Morph/model.bin (torch, 208656 bytes, 28 tensors)

encoder.embeddings.word_embeddings.weight f4 [1000, 14]
00000000: 3143 b2bc 81ce d9bc 0ed9 663c 4bb1 c43b
00000010: afd0 96bc de0d 8e3c 1594 03bd 4015 2a3a
00000020: da40 bb3b ec31 a53b 56af d2bb 5786 87bc
00000030: 6804 923c 5596 d23c 0000 0000 0000 0000
00000040: 0000 0000 0000 0000 0000 0000 0000 0000
00000050: 0000 0000 0000 0000 0000 0000 0000 0000
00000060: 0000 0000 0000 0000 0000 0000 0000 0000
00000070: da1d d0bb e17f 86bb 85e3 253b fdd2 953c
00000080: 7ea0 c3bb 329d 04bb 819e 313c 86dd d93b
00000090: 4624 783b 3a8b 13bc 2f22 88bc 55de e0bb
000000a0: 04e3 c23c 6006 e53b e7db 7ebb 1819 bab8
000000b0: e053 cebc 086c 05bd 0f05 2fba 2a76 103c
000000c0: 7e39 473c 67b4 f5bc 3875 e2bc fe88 e13c
000000d0: 6a4e 48bd 0a8d 693c abce d83b c527 a1bb
000000e0: 802f 0dbd 6ce6 bbbb 6de0 393c 7006 24bc
000000f0: 013f 84bc b851 a73c 519f b0bc c829 59ba
00000100: 8260 0d3c 2180 36bd 83fd 88bc 19d5 86bc
00000110: 3336 a53c da5c 143c c0f5 8abc 9db7 1cbb
00000120: 2b2b 583c 01cb 873c 4840 18bb 6639 d23c
00000130: e742 abbc 23f9 74bb a015 aa3b 2ddf 02bd
00000140: 24e7 aebc 9a90 44b9 fa4b 503c 925f 543c
00000150: 0477 513c 032a bdbc c20e 273d 9645 043d
00000160: 0113 443c dc48 513c 6c59 79bc 7d9a ce3c
00000170: d4ce 32bb 2807 4e3c 68ac 1ebd 24b7 16bd
00000180: e186 98bc 503f 3dbc 3db5 08bd 0297 e33a
00000190: b7e6 303c 40e4 09bd 7e9f e8bc 34bd 23bc
000001a0: 4852 f53b e2ec 2ebc 0600 3d3c 3bc6 1abd
000001b0: 233e 38bc 8864 013c 77f2 663c 559b 51bb
000001c0: 6d31 ef3b 330e 7ebc 1f09 1e3c 9b3a b33c
000001d0: 6e53 97bb c2b8 b53b 4694 1fbb df74 8d3c
000001e0: fc9d 403c 6594 9dbb 58e3 4fbb 004b aebc
000001f0: b0ed 5a3b 1024 a738 f0ae b7bc ad9b 6b3a
00000200: b9c7 8d3c be2c d63c f476 fabc 2df8 8e3b
00000210: 5619 01bd bae7 2f3c abf1 94bc d110 efbc
00000220: 67cb 3abc ebe8 96ba f19c f03c c1de 483c
00000230: 8212 923b c147 e43a 930c ed3c b345 f43c
00000240: 38b1 5a3c 6498 bb3c 2531 bdbb c0cc f33b
00000250: f633 6b3c 617a 8fbb a763 2abc 7495 95bc
00000260: ae0b 303c 07dd 913c 3452 63bc 30d6 e33b
00000270: bc64 0c3c c4e2 e23c 2561 c3bc 1eed 7c3c
00000280: ddd8 59bc 8b35 a73c 11fa 023c 46a3 e9bc
00000290: 3584 a73a 315e 58b9 db8c dd3c 50a2 963c
000002a0: a46b adbc 8387 e23b adf6 0f3d 23f8 4b3c
000002b0: 9dad b4bc 5874 293c f7fe c1bc a150 9f3a
000002c0: 6226 0cbc d9eb babc 93a5 43bd 397d 36bc
000002d0: 1e24 753c 335a 053b 0a03 5bbb 1a8d 40bd
000002e0: cfd3 c7bc 8ba2 16bd 7b23 0cbb 18df f4bc
000002f0: 147b da3c a01c 30bc bd71 e83c 8294 5bba
00000300: eba5 293d d628 ff3c d2ab aabc 4718 0cbd
00000310: 4a04 ca3b 39d1 ccbc 32b1 0a3d 9c96 0f3b
00000320: 5da7 523c 734f d53b e1c8 bfbc 3d74 b13c
00000330: 2387 5dbb 83cb 0cbb ec66 15bd f1df 23bd
00000340: d091 aebc adff 25bc 1559 00bd a428 813a
00000350: 4479 4e3c f11a 73bc 369f 9abb 26c7 9b3c
00000360: 6d17 30bd 99a5 503c dd72 373b 9517 7ebc
00000370: dbf1 ccbb f2bb 0cbc 8a02 9c3c 74f7 673c
00000380: 07e7 8f3b 5deb 5cbc d6f2 f93c 5e7c 0f3d
00000390: 807f 7bba efe1 c23c f551 a0bc ad5e 543c
000003a0: f988 b33a e969 c839 77de 14bd 1f4a fbbc
000003b0: 4230 09bc 6c4a 9d3c 5509 293c 44cb 19bc
000003c0: e8be ef3c 0902 2d3d 3713 f8b9 457c 883c
000003d0: 00df 3535 1b99 993c c8d4 95ba 7f1c 203b
000003e0: 0220 38bc e9c4 96bc 394c 9d3b b652 793b
000003f0: 7298 a6bc 8580 38bc 27c6 273c 38a3 bf3c
-0.021760555 -0.026587727 0.014089836 0.0060025803 -0.018410055 0.017340597 -0.032123644 0.0006488152
0.005714518 0.0050413515 -0.006429593 -0.01654355 0.017824367 0.02570645 0.0 0.0
0.0 0.0 0.0 0.0 0.0 0.0 0.0 0.0
0.0 0.0 0.0 0.0 -0.006351215 -0.0041046 0.0025312614 0.018289084
-0.00597006 -0.0020235297 0.010841013 0.006648722 0.0037863418 -0.009005362 -0.016617863 -0.0068624415
0.02378989 0.0069892853 -0.0038888396 -8.873845e-05 -0.02518648 -0.03257373 -0.0006676474 0.008817235
0.012159703 -0.02999325 -0.027643785 0.027531143 -0.048902906 0.014254818 0.0066164336 -0.004918071
-0.034469128 -0.0057342555 0.011345011 -0.0100113 -0.016143324 0.020424709 -0.021560343 -0.0008284119
0.008628966 -0.044555787 -0.016722446 -0.016459035 0.020167446 0.009055341 -0.016962886 -0.0023913153
0.013193886 0.016576292 -0.0023231674 0.025662135 -0.020905925 -0.0037379942 0.005190566 -0.03195112
-0.02135045 -0.00018745885 0.012713427 0.012962239 0.012784723 -0.023091322 0.04078556 0.032292925
0.0119674215 0.012773719 -0.015219074 0.02522015 -0.0027283924 0.012574948 -0.03873864 -0.03679575
-0.018619003 -0.011550739 -0.033375967 0.001736373 0.010797194 -0.03366494 -0.028396364 -0.00999384
0.0074866153 -0.010676594 0.01153565 -0.037786704 -0.011245283 0.007897504 0.014095894 -0.0031983454
0.007299593 -0.015506315 0.009645729 0.021878531 -0.0046181 0.0055457065 -0.0024349852 0.017267643
0.011756416 -0.00480895 -0.00317212 -0.021275997 0.0033405833 7.969898e-05 -0.022422284 0.0008987736
0.01730715 0.026144382 -0.0305743 0.004363081 -0.031518303 0.0107364 -0.018181643 -0.029182823
-0.011401034 -0.0011513507 0.02937171 0.01226014 0.0044577727 0.0017416404 0.02893666 0.029818391
0.013347916 0.022899814 -0.0057736808 0.0074401796 0.01435565 -0.0043786024 -0.0103997355 -0.018259741
0.010744972 0.01780559 -0.013874579 0.0069530234 0.008568939 0.02769602 -0.023850033 0.0154373925
-0.013296333 0.020411273 0.007994191 -0.028520238 0.001278049 -0.00020634454 0.027044704 0.018387944
-0.021169491 0.006913127 0.035147358 0.012449297 -0.022055442 0.01034268 -0.023681147 0.0012154767
-0.008554073 -0.022817539 -0.047765326 -0.011138254 0.014962224 0.0020347952 -0.003341856 -0.047009565
-0.02439299 -0.036776107 -0.0021383453 -0.029891536 0.026670016 -0.010749012 0.028374547 -0.00083763164
0.041417997 0.031147402 -0.020833883 -0.03420284 0.006165062 -0.025002109 0.033860393 0.0021909839
0.012857285 0.006509715 -0.023411216 0.021661872 -0.0033802472 -0.0021483607 -0.036475107 -0.04000849
-0.021309763 -0.010131759 -0.031334955 0.0009854031 0.012602154 -0.014837966 -0.0047186865 0.01901586
-0.04299109 0.012734794 0.0027992048 -0.015508552 -0.0062544174 -0.0085897315 0.01904418 0.0141581185
0.0043915543 -0.013483849 0.030511301 0.035030715 -0.0009593889 0.023789374 -0.01957033 0.012962026
0.0013697437 0.00038225882 -0.03634497 -0.030674992 -0.008373322 0.019200526 0.010317166 -0.009386841
0.029265836 0.04223827 -0.00047316562 0.016660819 6.775226e-07 0.018749764 -0.0011431212 0.0024431047
-0.0112381 -0.018404441 0.004800346 0.0038043684 -0.020336363 -0.01126111 0.010240114 0.023393258

encoder.embeddings.position_embeddings.weight f4 [298, 14]
00000000: 961f a2bc fd98 e5b8 d6f2 0f3c 399c b93b
00000010: 7343 7bbc 7db0 c33b 7d7f d23b b9a0 fe3a
00000020: 94cb af3c 8180 7bbb 5b16 943c 65f3 eabc
00000030: 0607 1ebc 5761 373c 0000 0000 0000 0000
00000040: 0000 0000 0000 0000 0000 0000 0000 0000
00000050: 0000 0000 0000 0000 0000 0000 0000 0000
00000060: 0000 0000 0000 0000 0000 0000 0000 0000
00000070: 6682 8c3c cadd 2c3c c118 e7bc a543 9f3b
00000080: 06d1 3b3a e222 c4bb aa43 27b8 46aa 39bc
00000090: d0a2 7fbc 5ba1 243d 02b9 bc3c 5fa0 11bc
000000a0: c814 0b3a dcdd babc 1c03 313c 4fee 43bc
000000b0: 29f0 c3bb 7387 0cbb cb24 c43b 1eda 5f3c
000000c0: 717b 83bc 5bc5 35bb f421 97bc 21d4 303d
000000d0: e07e 2b3b 4f53 8fbb ee29 a9bc a04d 5e3c
000000e0: 7287 5b3c 4e42 3d3c dca8 e9bc 9c5d d23a
000000f0: 0122 673c c5e4 1c3a 5885 e9bb 09f9 863c
00000100: db05 063c a790 893c 6baf 7cbc e098 59bc
00000110: 9802 e03c 8fda 66bb 3fe0 11bc 51ed 8abc
00000120: ede4 083d d2ed 1a3c b2a1 e43a 808f cd3c
00000130: 9583 103b 10c9 86bc a24e b7bc 8df5 1a3d
00000140: 5d72 f5ba 9f27 023b 022c 7f3c 95b1 623c
00000150: 941f 8ebc ae9a 05bb e2c0 44bc 344c 743c
00000160: 02bb 0a3d d030 8bbc ebaf 4e3c 3c0f 183d
00000170: 33ac cf3c 24f4 dcbc 09ea 4cbc cb30 443c
00000180: b42d 853c b997 0b3b 7906 553a bdb7 cbba
00000190: d8be b03c b562 5a3c 55a3 3ebd ef6f f2bc
000001a0: 64ee 4b3c c433 11bd 4677 14bc 3be9 f63b
000001b0: 5498 07bd f037 1cbb 8bcd d2bc 05d5 f5bc
000001c0: 0039 57bc ed28 1dbd 18f0 c83b f3c5 283c
000001d0: 09cc c1bb efc3 fd3b 6b40 603c fb2b 63bb
000001e0: ada5 c3bc 0b68 fabc 41ed 02bb 5943 81bc
000001f0: b4b0 113b c6da 483c 0e13 68ba d4b3 50bb
00000200: fd2b 863b 0dda 283c 17a0 5e3b 86fe 463d
00000210: e98f 6bbc c918 b53b 17fd 80bc 7ef6 cbbc
00000220: c65c 82bc cb6a 3ebc 6eee 233d 007d 48bc
00000230: 2ef4 9c3b 32fb 533d 40d1 88bc 3276 d33c
00000240: 79b9 7ebb c3b4 8dba 6885 923c a0b2 e0bb
00000250: 97f8 8bbb 14f4 e63b 8145 edba 40c0 04bc
00000260: 6117 e13b 648f 48bc 3ec5 593d c41f b1bc
00000270: f211 12bc 73cb 933b ce65 02bd a28e b0bb
00000280: 33cd 943c 1e53 9dbc 466c 25bc b20b bcbb
00000290: a0fe a93c be4a babb 49c9 18bc 5418 97bc
000002a0: aa5d a1bc 6e45 d6bc 02a0 f6bc fd95 48bc
000002b0: 474b f5bc 8f52 4f3c 3934 233c b4b7 ec3c
000002c0: 412b f0bb 6be6 b5bc b4c0 88ba bac4 0e3d
000002d0: 9c44 5c3c 52a6 2f3b 0e1e 3d3c 240c b23c
000002e0: 1641 82bb 6633 8e3c dd46 71bb 6462 d33c
000002f0: c7f0 f639 965d 923c 0672 3f3c 27d0 e43c
00000300: a078 6a3b 09ec 173d ade9 b2bb 2e82 973c
00000310: 4562 cb3b 251f 4f3c b83a 413c 8a03 2cbc
00000320: 45b2 093d e592 013c be15 1d3d 7220 d83c
00000330: 8ff8 94bb 2185 afbc 92d5 7abc d7a6 353b
00000340: b6d7 8fbc b50c e4bc d854 7abc 8baf adbc
00000350: 42cb aebc 82aa c13c a019 733c 77df f53b
00000360: cad4 ac3c bb51 b6bb 3eb6 413c 25f4 40bc
00000370: 7c11 cc3c 1000 623c 9d90 86bc 6899 123c
00000380: 9bc6 42bc 57b7 fe3b 9b1c 7abc a2d9 db3c
00000390: b6d0 053b b026 08bc e110 3f3b b9b7 6dbc
000003a0: b976 453d 99a2 75bc d363 ba3c f723 bf3c
000003b0: 5f45 073b df22 9fbc c756 f23c 4d85 39b9
000003c0: 3da2 63bb dcda 03bd 39d8 853c 937e 15bb
000003d0: dfc9 88bc c223 f73b 6aef 54b9 6474 e2bc
000003e0: 37df 6cbc b8a1 fdbc 04b9 a23c 8632 0c3c
000003f0: 1b1d 28bc 690d d2bb 8e36 613c af99 63bc
-0.019790452 -0.00010948067 0.008785924 0.005664375 -0.015335905 0.005971967 0.006423889 0.0019426561
0.021459378 -0.0038376155 0.018077066 -0.028680513 -0.009645229 0.011192641 0.0 0.0
0.0 0.0 0.0 0.0 0.0 0.0 0.0 0.0
0.0 0.0 0.0 0.0 0.017152023 0.0105509255 -0.028210046 0.004860359
0.0007164631 -0.0059856037 -3.987892e-05 -0.0113321 -0.015602782 0.040192943 0.023037437 -0.008888333
0.0005305526 -0.022810869 0.010803964 -0.011958673 -0.005979557 -0.0021443039 0.0059858314 0.013662843
-0.016050072 -0.0027736041 -0.018448807 0.043171052 0.0026168153 -0.004373945 -0.020649876 0.013568312
0.013398992 0.011551453 -0.028522901 0.0016049626 0.014107228 0.0005985017 -0.0071264915 0.016476171
0.008180107 0.016792608 -0.015422682 -0.013281077 0.027344987 -0.0035225486 -0.008903562 -0.016958864
0.033421446 0.009456115 0.0017443208 0.02509284 0.0022051085 -0.016453296 -0.022376362 0.03783183
-0.00187261 0.0019860042 0.015574457 0.013836284 -0.017349042 -0.0020386386 -0.0120088775 0.014910746
0.03386975 -0.016991049 0.012615184 0.037123904 0.025350666 -0.026971884 -0.01250697 0.011974524
0.016257145 0.002130015 0.00081262697 -0.0015542429 0.021575376 0.013329198 -0.046542484 -0.02959439
0.0124469735 -0.03544976 -0.00906164 0.0075351275 -0.033104256 -0.0023837052 -0.025732776 -0.030008802
-0.013136148 -0.038369108 0.006132137 0.010301101 -0.0059142155 0.0077443044 0.013687233 -0.0034663666
-0.023882711 -0.03056719 -0.001997784 -0.015779184 0.0022230567 0.012259191 -0.0008852937 -0.0031845467
0.0040945993 0.010305894 0.0033969933 0.048582576 -0.014377573 0.0055266363 -0.015745683 -0.02489781
-0.015913378 -0.011622141 0.040022306 -0.012236834 0.0047898507 0.05175323 -0.01670134 0.025813196
-0.0038867875 -0.0010811317 0.017885879 -0.0068572313 -0.0042715776 0.0070481393 -0.0018102379 -0.008102477
0.006869242 -0.012241218 0.05316662 -0.021621592 -0.008915411 0.004510337 -0.03183537 -0.005388097
0.018164253 -0.019204672 -0.010096615 -0.005738699 0.020751297 -0.0056851795 -0.009325334 -0.018444218
-0.019697983 -0.026156154 -0.030105595 -0.012242791 -0.029943122 0.012653961 0.009961181 0.02889619
-0.007329375 -0.022204598 -0.0010433407 0.03485558 0.013444092 0.0026802015 0.01154281 0.021734305
-0.003975044 0.017358493 -0.003681592 0.025803752 0.0004710017 0.01786689 0.0116849 0.027931286
0.0035777465 0.037090335 -0.005459985 0.018494692 0.006206783 0.012641703 0.011793785 -0.010498891
0.033617277 0.007908558 0.038350813 0.026382659 -0.004546232 -0.021425785 -0.015309708 0.0027717852
-0.017558914 -0.02783809 -0.015279017 -0.02120187 -0.021337155 0.023640875 0.014837652 0.0075034457
0.02109756 -0.0055639422 0.011823235 -0.011776959 0.024910681 0.01379396 -0.016426379 0.008947708
-0.011888172 0.0077733207 -0.015265609 0.026837174 0.002041859 -0.008310005 0.0029154348 -0.014509135
0.048208926 -0.01499238 0.022752678 0.023332579 0.0020640714 -0.019425808 0.029582394 -0.00017692633
-0.0034734153 -0.032191142 0.016338455 -0.002281104 -0.016697822 0.0075421045 -0.00020307084 -0.02764339
-0.014457515 -0.030960903 0.019863613 0.008556968 -0.010260846 -0.00641029 0.013745917 -0.0138916215

encoder.embeddings.token_type_embeddings.weight f4 [1, 14]
00000000: 54df 9bbc 7265 253d 2b00 86bb 5ad4 a83a
00000010: 4ebb cfbc 0119 443c 243b 8ebc 8c40 f4bc
00000020: 3f3a ecbc 08d8 a1bc d021 f1bb f709 00bb
00000030: 944a b13c e351 c03c
-0.01902739 0.04037995 -0.0040893755 0.0012880669 -0.025357869 0.011968852 -0.017362185 -0.029815935
-0.028836368 -0.019756332 -0.007358767 -0.001953719 0.021642007 0.023476547

encoder.embeddings.LayerNorm.weight f4 [14]
00000000: 0000 803f 0000 803f 0000 803f 0000 803f
00000010: 0000 803f 0000 803f 0000 803f 0000 803f
00000020: 0000 803f 0000 803f 0000 803f 0000 803f
00000030: 0000 803f 0000 803f
1.0 1.0 1.0 1.0 1.0 1.0 1.0 1.0
1.0 1.0 1.0 1.0 1.0 1.0

encoder.embeddings.LayerNorm.bias f4 [14]
00000000: 0000 0000 0000 0000 0000 0000 0000 0000
00000010: 0000 0000 0000 0000 0000 0000 0000 0000
00000020: 0000 0000 0000 0000 0000 0000 0000 0000
00000030: 0000 0000 0000 0000
0.0 0.0 0.0 0.0 0.0 0.0 0.0 0.0
0.0 0.0 0.0 0.0 0.0 0.0

encoder.encoder.layer.0.attention.self.query.weight f4 [14, 14]
00000000: 6e5c a8bd 597b 593d 7691 c33d 19c3 cd3d
00000010: de5a e8bd da86 c53d e96c 84bd b8eb c2bd
00000020: 2bb7 b8bc 8b5b a4bd f238 96bd cdc4 8ebd
00000030: 0c5c c63d eaa2 9c3d 8aa2 cdbd 80d3 d83d
00000040: cea8 a63d 51a8 983d 7b72 a9bd b559 893d
00000050: a5a7 c2bd 1084 64bd 6952 85bd f12c a1bd
00000060: d5a8 51bd 44df b7bd c0a7 943d 179f a23d
00000070: 5312 d33d f60e f0bd 09ca 9cbd 26e0 2fbd
00000080: 5afb ce3d 9628 d6bd 83b1 c73d ea53 d13d
00000090: 17b9 b33d ab12 223d 47d9 f43c c33d c53d
000000a0: f06e 91bd 1d45 f5bd 54df f2bd 54e5 3e3d
000000b0: 48d5 a23c a54d 9d3d 1695 81bd d45e c03d
000000c0: 9e35 0fbd 87b5 d9bc 64cb 1bbd 4b03 6fbd
000000d0: 3e66 3abd 1829 b3bd 2295 a53d d512 7f3d
000000e0: 2952 a4bd 3c5c 1e3d 551c ac3d 9b65 9a3d
000000f0: 4997 a7bd d35c 9a3d 1843 99bd f41d 87bd
00000100: 9a78 76bd 28f9 9abd 7b92 39bd fcb7 75bd
00000110: 1142 9f3d ea3d 893d da2f 923d b695 abbd
00000120: b02c a6bd 983f 9fbd 379d ca3d 9060 82bd
00000130: 54bc b83d 9275 003e 5daf c43d efd5 b23d
00000140: f9a8 6e3d 57a5 5d3d ccb9 debd e718 dbbd
00000150: f44c c13c 6198 e2bb 8c41 15bd 16e1 71bc
00000160: 511e febb 6e2b fabc 21e8 793c b43b b93c
00000170: 7d76 39bb cc3f 4b3d 765e 883c eb73 8a3c
00000180: 7475 fcbc 20f6 64bc 9855 a83d 3762 81bd
00000190: cdfe edbc c78f 26bc 059f 683d 01f1 b4bd
000001a0: 1903 a43d 9e21 953d 28e4 9a3d 664a 5a3d
000001b0: 2c5c 7f3a 9eb0 103d 4a2a 40bd ff47 7abd
000001c0: 71b7 8abd 1115 623d 7b70 aa3d 4ffc 893d
000001d0: 2e25 b6bd 2b83 9e3d b4ce edbd 4d14 bdbd
000001e0: 370f 9bbd 7de6 2cbd 2ca4 a4bd 325b 9ebd
000001f0: 3940 9a3d 8490 a03d 6b14 94bd d9be 893d
00000200: 1043 cf3d cd7b ac3d 4af8 d4bd e161 853d
00000210: a298 afbd 753c cbbd e1ab 96bd e2eb e1bd
00000220: 5086 90bd 0c73 97bd 2483 c73d 7108 953d
00000230: 0086 863d b548 78bd e5ae 87bd 8c52 b4bd
00000240: 519d 593d 0a06 a7bd bc4a c33d adfb 853d
00000250: 3472 cf3d d815 773d f9bb 383d 0dee 943d
00000260: e9ae 98bd 79c5 fcbd 7ddd 803d 93d2 60bd
00000270: 5394 81bd a734 acbc 3ec6 8d3d e4e5 aabd
00000280: 3cb4 9f3d 9928 833d 5262 8d3d cb11 3c3d
00000290: def8 b73c 143b 8f3d 2350 dbbd 333b b1bd
000002a0: 6ed8 bbbd 9b00 903d 4934 a23d e671 863d
000002b0: 0e4b e2bd 61c1 ca3d ca80 d3bd e5a6 8cbd
000002c0: cd21 7dbd 2539 acbd 625e 3ebd db04 44bd
000002d0: fa17 a33d 7547 a13d 368a d6bd ce76 bf3d
000002e0: a952 303d 0b9a 4c3d 862a a0bd 6adb a93d
000002f0: 4666 b0bd b428 fdbd fc66 f3bd 4e75 77bd
00000300: a4de 2cbd 49d3 84bd 2198 2d3d 77c8 cf3d
-0.082207546 0.05309615 0.09549229 0.100469775 -0.113454565 0.096448615 -0.064660855 -0.09517616
-0.022548279 -0.08025273 -0.0733508 -0.069711305 0.09685525 0.07648261 -0.100407675 0.105872154
0.08137666 0.07453979 -0.082737885 0.067065634 -0.09504632 -0.055790007 -0.06509859 -0.078699
-0.0511864 -0.089781314 0.07258558 0.079405 0.103062294 -0.117216036 -0.07655723 -0.042938374
0.10106535 -0.1045696 0.097506545 0.102210835 0.087755375 0.039568584 0.029888762 0.09630921
-0.07101238 -0.11976073 -0.11859003 0.046605423 0.019877091 0.07680825 -0.06327264 0.09393087
-0.034963243 -0.026575817 -0.038035765 -0.05835275 -0.045507662 -0.087480724 0.080850855 0.06227382
-0.08023483 0.03866218 0.084038414 0.07538911 -0.08183152 0.07537236 -0.074835 -0.0659751
-0.06017361 -0.07567054 -0.04530571 -0.059989914 0.07776273 0.06701262 0.07138033 -0.083781645
-0.08113992 -0.077758014 0.098932676 -0.06366074 0.09020296 0.1254485 0.096037604 0.08732211
0.058266614 0.05411276 -0.10875282 -0.10698109 0.023596264 -0.0069151376 -0.036439463 -0.014763137
-0.007755079 -0.030538287 0.015253098 0.022611476 -0.0028299384 0.04962139 0.016646605 0.016900977
-0.030817725 -0.013974696 0.08219451 -0.06317561 -0.029052163 -0.010166115 0.056792278 -0.0883503
0.08008403 0.072818026 0.075630486 0.053293608 0.00097412127 0.035324685 -0.04691533 -0.061103817
-0.0677327 0.05519587 0.08322235 0.06737577 -0.0889381 0.07739862 -0.11611691 -0.09232388
-0.075712614 -0.042212 -0.08039126 -0.07732238 0.07531781 0.07840064 -0.07230457 0.067258544
0.10120213 0.084220506 -0.1039892 0.065128095 -0.08574034 -0.09923641 -0.07357002 -0.11031319
-0.07056868 -0.0739499 0.0974181 0.07277001 0.06568527 -0.060616214 -0.06625155 -0.08804807
0.053128544 -0.08155449 0.09535739 0.06542144 0.101292044 0.060323566 0.04510114 0.07271967
-0.074552365 -0.123423524 0.062922455 -0.05488832 -0.06327119 -0.0210212 0.06922577 -0.083446294
0.07798049 0.06404228 0.06903519 0.045915406 0.022457536 0.0699369 -0.10708644 -0.086538695
-0.0917214 0.070313655 0.07920129 0.06564693 -0.11049472 0.09900165 -0.10327299 -0.0686777
-0.061799813 -0.08409337 -0.04647673 -0.047856193 0.079635575 0.078749575 -0.104755804 0.09348832
0.04304758 0.049951594 -0.07820611 0.08293803 -0.08613257 -0.12361279 -0.11884877 -0.060414605
-0.042204514 -0.06485612 0.04238141 0.101456575

encoder.encoder.layer.0.attention.self.query.bias f4 [14]
00000000: 0000 0000 0000 0000 0000 0000 0000 0000
00000010: 0000 0000 0000 0000 0000 0000 0000 0000
00000020: 0000 0000 0000 0000 0000 0000 0000 0000
00000030: 0000 0000 0000 0000
0.0 0.0 0.0 0.0 0.0 0.0 0.0 0.0
0.0 0.0 0.0 0.0 0.0 0.0

encoder.encoder.layer.0.attention.self.key.weight f4 [14, 14]
00000000: 37cd 0f3e 3eed e9bd 6724 9ebd 72d2 a5bd
00000010: f086 273e eb24 87bd 28c7 6a3d 86da dc3d
00000020: cb48 363d a863 2c3e 78aa 803d 9009 203d
00000030: 9468 0bbe b927 bcbd 72e7 ec3d 5cbf edbd
00000040: 41fd 3abd 2731 72bd b98e 003e 6df4 ccbd
00000050: 91db b43d 09af 223d 9d35 6b3d bd5d 183e
00000060: b900 273c 762f 573d 09e6 0ebe 820d b5bd
00000070: 8f97 18be 182c 103e 9c72 eb3d 8a83 4d3d
00000080: 3bba 04be d05b d13d bfee 79bd 6d34 cfbd
00000090: d929 a5bd 2be9 2bbe 366e 83bd c53d 10bd
000000a0: 59b2 0a3e 5430 073e a37a 0f3e 8b47 c7bd
000000b0: 9524 0abd 8c88 42bd 1d61 d73d 5c41 27bd
000000c0: cc32 b53d 7e7c a83d 5e2a 763d ab41 083e
000000d0: 857e 333d 5acf 7a3d 769d 0fbe 82d3 b7bd
000000e0: 470f e13d 3428 b8bd 2f24 4dbc fe1f a7bc
000000f0: d73d f73d c774 80bd 318b 0f3d f90e aa3d
00000100: c54a 1a3d 5104 073e 4a9c 873d 9faf 3d3d
00000110: e180 12be 1046 bcbd 0398 31be 4fb1 d33d
00000120: d5ba 863d e317 c73c c4a4 38be bfba d03d
00000130: 186f cabd 22be e1bd 8d59 6dbd 6d44 31be
00000140: a635 26bd a3f6 64bd fbfc d93d 9533 a23d
00000150: 8bbb 4ebd 082b 6a3d 8a10 813c 773b c0bc
00000160: 3c6d 49bb 922e 223c d9f3 17bc 9282 7abc
00000170: c882 9db8 10c3 e8bc 8d70 223c d480 233b
00000180: de7a ea3c aa46 133d 657c 7bbd ffdd 913d
00000190: 928a 083c b809 b9bb 242a aabd bbc2 253d
000001a0: 70d4 34bd 36f3 e6bc d565 e1bc 74ed b5bd
000001b0: f8e9 173c 64f6 f33b b1c1 b23d c321 633d
000001c0: f460 d03d 65df c0bd d768 44bd 1c59 c3bc
000001d0: 3a1b 0f3e 4122 79bd ba49 403d 039f a43d
000001e0: 829e 233d 373a f33d 153b ed3c df3b 9b3c
000001f0: 2ca3 04be c0b4 e8bd 6abd 0f3e 48c0 adbd
00000200: 0d9a 68bd 00f3 a8bd 77fc b63d 9bce 8abd
00000210: 7263 723d d5b7 af3d 8c8e 773d ead5 1a3e
00000220: b1a3 e63c 7aba 48bc 2268 15be a711 00be
00000230: 1472 30be 708f b63d f6af 3d3d 7edf 443d
00000240: a729 0bbe 302b a63d b721 78bd 9fb1 8bbd
00000250: 722c 86bd 9e80 2bbe 40b5 89bd 9d6b d2bd
00000260: b7cd 103e f599 d23d 0cfd ffbd f34e 9d3d
00000270: 3e3c 5d3d 0396 093d fd1c e2bd 180a 9d3d
00000280: db90 c1bd 1a12 86bd 1d6c 08bd 3472 0dbe
00000290: ea44 a2bc ee38 72bd efd7 1b3e f075 f33d
000002a0: 45ad 1c3e 9f86 02be 6664 8fbd e3f8 2dbd
000002b0: 60ec f63d 410a 70bd f3d6 d23d 0010 b33d
000002c0: 1148 193d 2280 163e 5d4e 6b3d 6210 0b3d
000002d0: a6f1 30be 5ac4 babd 67b1 203e ac49 22be
000002e0: 1344 61bd dec1 0ebd 71b9 cb3d 8daf 17bd
000002f0: dbf1 513d 5e22 b33d a12d 5a3c 37ee 043e
00000300: ee7a ab3c b849 7d3d 8b03 10be f7ee 6fbd
0.14043127 -0.114222035 -0.07721787 -0.0809678 0.16360068 -0.065988384 0.057318836 0.107838675
0.044503015 0.16834891 0.06282514 0.03907162 -0.13614112 -0.09187264 0.11567582 -0.116087645
-0.045651678 -0.059128907 0.12554444 -0.10007558 0.088309415 0.039717708 0.057424176 0.14879508
0.010193043 0.052535497 -0.13954939 -0.08840467 -0.14901565 0.1407932 0.114964694 0.050174274
-0.12961666 0.1022259 -0.0610187 -0.10117421 -0.080646224 -0.16788165 -0.064175054 -0.035215158
0.13544597 0.1320203 0.14011626 -0.097304426 -0.033726294 -0.047493502 0.1051657 -0.040833816
0.08847579 0.0822687 0.060099 0.133063 0.04382183 0.061232902 -0.1402491 -0.08975889
0.10989242 -0.08992043 -0.012520834 -0.020400997 0.12072342 -0.062722735 0.035044853 0.08303637
0.037668962 0.1318524 0.06621607 0.046310063 -0.14306976 -0.09193051 -0.17343144 0.10336553
0.06578604 0.024303382 -0.18031603 0.10191869 -0.09884471 -0.11022593 -0.05794673 -0.17311259
-0.040578507 -0.055899274 0.10643955 0.07919995 -0.050471824 0.057169944 0.015754957 -0.023465855
-0.0030735275 0.009898799 -0.009274446 -0.015289919 -7.510703e-05 -0.028413326 0.0099145295 0.0024948614
0.02862304 0.035956062 -0.06139793 0.071224205 0.008333819 -0.0056469105 -0.08308819 0.040468913
-0.04414791 -0.028192144 -0.027514378 -0.08883181 0.009272091 0.0074451435 0.0872835 0.05545212
0.10174742 -0.09417609 -0.047951546 -0.023846202 0.1397523 -0.060823683 0.04694531 0.080381416
0.039946087 0.11876338 0.028958837 0.018949447 -0.1295287 -0.113626 0.140371 -0.0848394
-0.05678754 -0.082494736 0.089348726 -0.06777688 0.05917687 0.08579985 0.060438678 0.15120664
0.028154226 -0.012251491 -0.14590505 -0.12506734 -0.17231017 0.08914077 0.046310388 0.0480647
-0.13590108 0.08113706 -0.060579028 -0.06820988 -0.06551446 -0.16748282 -0.06724024 -0.10274432
0.14140974 0.10283271 -0.12499437 0.07681074 0.05401253 0.033590328 -0.11040685 0.07667941
-0.09451457 -0.06546421 -0.03330623 -0.13813096 -0.019808251 -0.059136324 0.15219091 0.11887729
0.15300472 -0.12746666 -0.07001571 -0.042473685 0.12056804 -0.05860353 0.102949046 0.08743286
0.037422244 0.14697316 0.05744778 0.03395117 -0.17279682 -0.09119482 0.15692674 -0.15848416
-0.05499656 -0.034852855 0.099474795 -0.037032653 0.051256042 0.087467894 0.013316543 0.12981497
0.02093264 0.06183788 -0.14063852 -0.058577504

encoder.encoder.layer.0.attention.self.key.bias f4 [14]
00000000: 0000 0000 0000 0000 0000 0000 0000 0000
00000010: 0000 0000 0000 0000 0000 0000 0000 0000
00000020: 0000 0000 0000 0000 0000 0000 0000 0000
00000030: 0000 0000 0000 0000
0.0 0.0 0.0 0.0 0.0 0.0 0.0 0.0
0.0 0.0 0.0 0.0 0.0 0.0

encoder.encoder.layer.0.attention.self.value.weight f4 [14, 14]
00000000: 9171 82bc 0871 22bd 0685 0bbe 719b 2ebe
00000010: 3545 d5bc 4b1e a5bd 542d 7d3d 7bbd 10bc
00000020: 8df7 7a3d 8261 ed3c b872 173e aee6 033e
00000030: 91f2 283b 2f88 33bc 632f da3b 56e9 2bbd
00000040: 813a 3cbe 1d76 2bbe e2e0 5fbc 2547 b1bd
00000050: 7662 be3d 5e26 e5bc b520 743d 6067 bd3b
00000060: e450 703e f7fd 7f3e 243c e73b e9dd 2fbd
00000070: 4e6c f93b 25bd 513c 81cc 1a3e a485 483e
00000080: 578b 553c b8fc a73d d761 1dbe ac5e e53c
00000090: b765 e2bd 981a 79bb 0437 4abe 8d83 68be
000000a0: c5c8 cd3b d85d 983d 81c1 65bc 01e2 0c3d
000000b0: 7c90 263e 57e0 3d3e ef30 093d 5f97 e23d
000000c0: 6c9b f3bd 9eb5 9f3d 209f aabd b9da 9d3b
000000d0: 29e1 4cbe f2a2 4abe b97d c93c a38b 763d
000000e0: 5632 fe3c c22f 50bd b04a 20be f8af 46be
000000f0: 0075 b9bc 9635 bcbd d74b d73d 2888 84bd
00000100: 6e2e b03d ba8d 0dbd 1651 503e bec7 3f3e
00000110: 7ecd 36bc 740a 4fbd bc0e 803b 1d27 b83c
00000120: ecc4 293e 4c60 4a3e 9f6c 973b 691b bc3d
00000130: 695a c6bd 7b8d de3c ec1d 49bd 4a77 143d
00000140: 319a 64be f2d4 34be e8a5 21bb 492b d73c
00000150: 7f78 c8bc d4b8 f23b a955 a3bd 7bae b2bd
00000160: e77f 3e3b 16f9 cebc bc20 093d 52b2 1f3b
00000170: 2d5d bcbb c492 6a3c 03e9 803d cfb7 953d
00000180: ba52 323c 2924 2abc e346 733d 6416 473a
00000190: 41f3 a03d 94d4 f13d eadd a43c 435e 1c3d
000001a0: f518 9abc d847 683c aaf2 133d 0772 0d3d
000001b0: c380 e8bd d427 e3bd 44c3 d5bc 15e0 f83b
000001c0: 3254 08bd 04e4 7cbc 1058 15be 8f5f 2fbe
000001d0: 9af9 e4bc 9946 aabd 0ab5 ca3d 1932 4fbd
000001e0: db09 893d 3459 afbc 9c75 1a3e 07f1 4d3e
000001f0: 6b61 dd3c ccce 34bc df4a 8d3c 6814 633d
00000200: ae2b d03d 4b5c 003e 28d6 bfbc 63c4 283d
00000210: 2a63 56bd e500 283d 7988 49bd 81d2 343c
00000220: 516a c7bd 3123 09be fdb3 9d3c bc33 c2bb
00000230: 5383 adbc 5d67 dfbc e7ba 2ebe 6926 52be
00000240: a715 02bc fbda c8bd 6f07 f23d 29c9 8fbd
00000250: 004b b53d 34a6 063d d730 363e d029 5d3e
00000260: f169 ad3a bda1 37bd dd05 af3c 6056 18bd
00000270: d9f0 35be 19d1 13be 7d4f 88bc a4fc c8bd
00000280: df8f c43d 9d98 28bd 2c20 493d 6623 6cbc
00000290: 4ed6 563e bce9 2a3e 9986 1fbc 10d0 34bd
000002a0: 87c0 0dbc bc8d 603b ee55 b6bd e33e 98bd
000002b0: a987 22bd b797 fabc 2fd3 5e3d 582a 5dbc
000002c0: 1d32 883d 29db 88bc a473 f03d a70e d83d
000002d0: 1fbb dc3b 4d77 1fbc c531 423c 553e ce3c
000002e0: 014c 3c3e e830 283e a7d7 e33c ed6c d13d
000002f0: a3ba f1bd a1e4 d43c 5351 c1bd 7642 863c
00000300: 8272 41be 75b5 65be d1a9 c0bb 1d6f ea3c
-0.015923293 -0.039658576 -0.13624963 -0.17051484 -0.026033977 -0.080624186 0.061810806 -0.008834238
0.06127124 0.02897716 0.14789855 0.12880966 0.0025779346 -0.010957762 0.006658481 -0.041970573
-0.18381692 -0.16744275 -0.013664456 -0.08656148 0.09296124 -0.027972396 0.059601504 0.0057801455
0.23468357 0.24999224 0.00705673 -0.04293624 0.007611788 0.012801443 0.15117075 0.1958223
0.0130337095 0.08202499 -0.15369354 0.027999245 -0.11054557 -0.0038010236 -0.1974755 -0.22706433
0.006280037 0.07439774 -0.014023186 0.03439522 0.16266054 0.1854261 0.033493932 0.11064028
-0.11894879 0.077983126 -0.08331132 0.0048173335 -0.20007767 -0.19788721 0.024596082 0.06019176
0.031029861 -0.050826795 -0.15653491 -0.19403064 -0.022638798 -0.09189908 0.10512512 -0.06471282
0.08602606 -0.03455899 0.20343432 0.1872854 -0.011157392 -0.05054708 0.0039080065 0.022479588
0.16579026 0.19763297 0.004621103 0.091849156 -0.09685213 0.027167073 -0.0491008 0.036246575
-0.22324444 -0.17659357 -0.0024665538 0.026265757 -0.02447152 0.007407287 -0.07975323 -0.08724686
0.0029067935 -0.025265258 0.033478484 0.0024367762 -0.005748412 0.014317218 0.062944435 0.07310449
0.010883981 -0.010384598 0.059393775 0.0007594584 0.07858897 0.11808124 0.020125348 0.038175832
-0.018810729 0.014177285 0.036120094 0.034532573 -0.11352684 -0.11091581 -0.026094086 0.007595072
-0.03328342 -0.015435223 -0.14584374 -0.17126296 -0.02795105 -0.08314247 0.09897812 -0.050584886
0.06691333 -0.02140484 0.15083927 0.20111476 0.027023992 -0.011035632 0.017247615 0.055439383
0.10164581 0.12535207 -0.023417547 0.041202914 -0.052340664 0.041016478 -0.049202416 0.011036516
-0.09737075 -0.1339233 0.019250864 -0.0059265774 -0.021180784 -0.027270967 -0.17063485 -0.20522465
-0.007939733 -0.09807392 0.11817824 -0.0702079 0.08852196 0.032873347 0.17792068 0.21597981
0.0013230426 -0.04483198 0.0213651 -0.03719175 -0.17767657 -0.14435233 -0.016639465 -0.098138124
0.09597754 -0.04116117 0.049102947 -0.0144127365 0.20980188 0.16690725 -0.00973668 -0.044143736
-0.008651859 0.0034264168 -0.089031085 -0.0743387 -0.039680157 -0.030589921 0.05440062 -0.013498865
0.06650183 -0.016706066 0.11740807 0.1054967 0.0067361738 -0.009733033 0.011852686 0.025176207
0.18388368 0.16424906 0.027812792 0.10225854 -0.11803176 0.025987925 -0.094393395 0.016389113
-0.18891338 -0.22432502 -0.0058796187 0.028617436

encoder.encoder.layer.0.attention.self.value.bias f4 [14]
00000000: 0000 0000 0000 0000 0000 0000 0000 0000
00000010: 0000 0000 0000 0000 0000 0000 0000 0000
00000020: 0000 0000 0000 0000 0000 0000 0000 0000
00000030: 0000 0000 0000 0000
0.0 0.0 0.0 0.0 0.0 0.0 0.0 0.0
0.0 0.0 0.0 0.0 0.0 0.0

encoder.encoder.layer.0.attention.self.distance_embedding.weight f4 [595, 2]
00000000: 750e ec3b 37eb 26bb d7da 0c3c 97e0 963c
00000010: e760 963c 66eb 7dbc 0a70 6dbc a917 323d
00000020: c9f6 04bd 1583 133c 68c4 edba 1412 f0b8
00000030: 1b3e b53b e0f2 1fbb d805 69bc e969 5d3b
00000040: 6ed1 93ba 04c0 c4bc c919 e03c 8161 a5bc
00000050: d7c2 153c 64bf c53a c6d6 263c 59d1 a9bb
00000060: 1c6d cf3c a952 493c bddd 8c3c 6501 1d3c
00000070: c60f e8bc 7457 803c 2eee 083b 6f2b 6abc
00000080: f945 73bd 7cd1 3f3a c726 10bc ef69 10bc
00000090: cbff eebc 58d6 6e3c 7d05 de3c 0488 793d
000000a0: 41c7 6cbc 8fb2 dd39 2a08 6c3c 30ca eebb
000000b0: acd4 053c b9e3 69bc f0ff a93b 99e8 d53c
000000c0: b88b 3bbc d0b9 803c 4077 94bb f1bc bebb
000000d0: 1aeb 173c 6117 99bc 93c0 313c d3a2 8abd
000000e0: 8150 92bc a666 a33c cccd 883d b2ac 783b
000000f0: b475 723c 5ae2 c3ba 7758 e9ba 6f8c 84bb
00000100: 54c6 983b 3572 b53b 38e9 25bd e33d 23bc
00000110: c429 92bc 2bf0 eeba 617f 09bd 49d4 cbbc
00000120: 0c92 e5ba 1163 833c 829d 043d 56fe 06bd
00000130: 900b 94ba 50a1 afbb ca3c a73b 8b1c 9438
00000140: 9319 853b 0541 e83c 1b6f 05bc 05ec 1b3a
00000150: a59b 403c a8d6 d23a f085 123d cc4d d5bc
00000160: 0709 f5bb 3b92 8bbc ad50 7c3b f5a3 7abc
00000170: d018 0f3c 6ebc ffbc 7c8b 883c 0ed3 86bc
00000180: cdf5 15bc aa24 67bc f403 9e3c 3dd6 e93c
00000190: 12ea 7dbc 92e0 f0bc 0e85 a83c fb3f 60bc
000001a0: b7a4 13bc 77f5 ba3b 70ff 09bd e8c9 88bc
000001b0: 81a9 853b 1b00 23bc d57a 55ba f320 b83b
000001c0: 97bc 23bb 27e7 5bbb 4123 533c 88aa baba
000001d0: cd77 fa3b 736b f13c 0c7f a03c 7e6a 0abc
000001e0: 58cc 28bb 9a26 6b3c 7ba4 2a3d 0750 943b
000001f0: cde2 d03c e0c7 a3bb 00d8 a4bc 8e7b 5f3c
00000200: 954b 9bba e03e 37bc dd67 02bc 1be8 18bd
00000210: 2c23 f83c 7eca 2bbd 7545 873c 8d26 2ebc
00000220: 4ada 0f3c 878d 6e3b 5251 07bd bccd 6cba
00000230: c4fa d2bb 5850 903c f2bc 08bc 3ed2 af3c
00000240: b7b3 bb3c dbef d73c ac7e bfbb 7930 0abc
00000250: 28d7 b53a efa6 463c 3068 2dbd 9c6d 8ebc
00000260: eedc 8aba 34b3 c83a ddab d53b d9f8 40bc
00000270: a27d 763c 9c59 4b3d eb65 c53b a9e3 af3a
00000280: 3d6b 923c d830 65bb ca0a ffbc a8de b6bb
00000290: 5975 803b 151e 253c dbc3 72bc d5d1 b4bb
000002a0: a626 1bbd 232f d93b c726 44bc 2583 bc3a
000002b0: 347d 88ba 8714 2b3c 06df 043c cc1b d5bb
000002c0: 5e51 213d 6b6e 3dbc 00e7 c53b ffe2 383c
000002d0: 8872 023d ce37 c03c 592f 983c 968f fdbc
000002e0: 1e46 e83b c4f3 df3b 8914 873c a047 16bd
000002f0: eed3 bf3c d03d 453b aea4 863c d324 ac3b
00000300: bd29 003c 638d 55bd 3ba6 aebc 7854 0bbc
00000310: 8b66 59bc 2140 ebbc 73b1 ca3b f5bd 03bc
00000320: af61 edbc 43cd a9bc 1ace 4dbc e2a2 b43c
00000330: f0db c7bb 802c 82bc 946b 48bc 4de1 5b3c
00000340: b987 d6bc 48fe c83b 0c93 92bc 3c7b e33c
00000350: f61b 97bc 7877 ecbb c4b0 31bd 3327 cfbc
00000360: 4f88 b2bc e10b 5c3c 502a d83a d46e 203d
00000370: 9cec ca3c d9e8 bd3b a219 1bbc f583 dd3c
00000380: 53e5 a6bc 1bbf 103c 21b6 e5bb 77c7 4ebc
00000390: b4ef 763a 98aa 843b a0f0 873b 54cd 4c3b
000003a0: 6f12 e6bc 1a26 9ebc a813 a63c 45a4 b33c
000003b0: ab5c f53c dec7 0fbd 8b14 d2bb 46cc 083d
000003c0: 6328 a43a 1611 8f3c d45d df3b 04f0 2a3c
000003d0: c7eb 9f3b f31c 24bc 64d2 04bb 4996 b4b8
000003e0: 4892 f0bb 865c 0b3c eb70 f2bc f214 b73a
000003f0: 71f7 a8bc 0f2f a9bc 7567 953c 6ac2 f43a
0.007203872 -0.0025469789 0.008597097 0.01841764 0.018356754 -0.015498018 -0.014492044 0.043479595
-0.032461915 0.00900342 -0.0018140199 -0.00011447459 0.005531085 -0.002440624 -0.014222585 0.0033785051
-0.0011277625 -0.024017341 0.027356045 -0.020188095 0.009140692 0.0015086946 0.010183042 -0.005182427
0.025320582 0.012287774 0.017195577 0.009582852 -0.028327834 0.0156667 0.002089392 -0.014292582
-0.059392903 0.00073172874 -0.008798308 -0.008814319 -0.029174706 0.014577471 0.027102226 0.06092073
-0.014451803 0.0004228544 0.014406243 -0.007287286 0.008168381 -0.014275485 0.005187981 0.026111888
-0.011446886 0.015713602 -0.0045308173 -0.0058208634 0.009272361 -0.018687906 0.010849136 -0.067693375
-0.017860653 0.019946408 0.06679878 0.0037944731 0.01479857 -0.0014944777 -0.0017802854 -0.0040450613
0.0046623144 0.005537296 -0.040505618 -0.009963485 -0.017842181 -0.0018229535 -0.033568744 -0.024881499
-0.0017514839 0.01603845 0.032376774 -0.032957397 -0.001129495 -0.005359806 0.005103682 7.0625065e-05
0.0040618866 0.028351316 -0.008144165 0.00059479504 0.011755859 0.0016085701 0.035772264 -0.026038073
-0.007477883 -0.017037502 0.0038500235 -0.015297879 0.008733943 -0.03121778 0.016668074 -0.01645806
-0.009152842 -0.0141078625 0.019288994 0.02854454 -0.015497701 -0.029403958 0.020571258 -0.013687129
-0.009011439 0.005705531 -0.03369087 -0.016697839 0.0040790443 -0.009948756 -0.00081436086 0.005619162
-0.0024984234 -0.0033554526 0.012886823 -0.0014241496 0.007643676 0.029470181 0.01959183 -0.008448241
-0.0025756564 0.014352465 0.041660767 0.0045261416 0.025498772 -0.004998192 -0.020122528 0.013640298
-0.0011848087 -0.011184424 -0.007959333 -0.037330728 0.030290209 -0.04194116 0.016512612 -0.010629308
0.0087800715 0.0036400275 -0.033036537 -0.00090333424 -0.006438585 0.017616436 -0.008345829 0.021462556
0.022912843 0.02635949 -0.005843958 -0.008434408 0.0013873326 0.012124761 -0.04233569 -0.01738625
-0.0010594407 0.0015312196 0.006520732 -0.01177808 0.015044602 0.049646005 0.0060241125 0.0013419288
0.0178734 -0.003497174 -0.031133074 -0.005580742 0.003920239 0.010077973 -0.014817203 -0.005518178
-0.037878655 0.0066279336 -0.011972136 0.0014382346 -0.001041329 0.010441906 0.008109814 -0.006503558
0.03938424 -0.01156197 0.0060395002 0.011284589 0.031847507 0.02346411 0.018577265 -0.030952256
0.0070884367 0.006834479 0.016489284 -0.0366894 0.023416486 0.0030096658 0.016435947 0.005253413
0.007822451 -0.05213679 -0.0213195 -0.008504026 -0.013269077 -0.028717102 0.0061857044 -0.008040895
-0.028977243 -0.02072776 -0.0125613455 0.022050325 -0.0060992166 -0.01589036 -0.01223268 0.013420415
-0.026187764 0.0061338283 -0.017892383 0.027768724 -0.01844595 -0.00721639 -0.043381467 -0.025287246
-0.021793513 0.0134305665 0.0016492102 0.039168194 0.024771027 0.00579558 -0.009466561 0.027040461
-0.020373022 0.008834626 -0.007010237 -0.012620798 0.0009419874 0.0040486567 0.004148558 0.0031250315
-0.028084962 -0.019305278 0.020273045 0.021928916 0.029951414 -0.035102718 -0.0064111403 0.033397935
0.0012524243 0.017464202 0.006816605 0.010433201 0.004880402 -0.010016668 -0.0020267004 -8.611062e-05
-0.007341657 0.008505946 -0.02959486 0.0013968034 -0.020625802 -0.020652322 0.018237809 0.0018673663

encoder.encoder.layer.0.attention.output.dense.weight f4 [14, 14]
00000000: e35f 8fbd 6357 6abd 27d3 a93d 4f5b 913d
00000010: b995 edbc cc59 dc3d ed7f 3abd 2405 303d
00000020: 2c20 b1bd 9ff9 393d 3cbd 90bd 1c68 a8bd
00000030: fa54 5cbd 74d7 a23d b928 3f3d 24c5 f73c
00000040: 673a 66bd 9526 24bd 36ed 733d 1bbc 86bd
00000050: a159 3c3d ee29 86bc 25f3 7b3d 55d7 23bd
00000060: 1430 4f3d 6f3a 383d 85e7 553d 189a a4bd
00000070: af02 13be 9bca 32be 3805 1a3e efc0 133e
00000080: 42e8 11be 56b8 1b3e e6bf 3cbd 1fce 6b3d
00000090: 3aad 25be b027 8b3d d724 38be b046 07be
000000a0: 4ad3 63bd f11f 013e 7e50 2e39 2538 533d
000000b0: 0d66 bfbd 2de6 c7bc c49c 453d 6ba1 8cbd
000000c0: f213 8a3c dfe2 68bd 520f c83d f03e 1abd
000000d0: 21f7 983d 73ff b73d c9d5 683d 4b3b c1bd
000000e0: d7e2 4cbc b034 c0ba 66f8 263c 39f0 d23a
000000f0: f420 053c d43d f0bb 2f15 5dbc 0633 3a3b
00000100: d322 90bc d765 9abc 8517 013d 2123 09bc
00000110: 48af 823c 6c9d 0ebd 911b 9cbc 4154 1ebd
00000120: ff11 473c 54e0 fa3c f07d 09bc ff6e 6e3c
00000130: 25c9 c13a 20aa 21bc 0682 dabc 0baf c33c
00000140: dfb7 57bc a15b 80bd 7d60 703b e0b9 f13c
00000150: 1df9 113d 3ff1 35bb 05d1 92bb 7301 df3c
00000160: 0fc6 913b 85f3 66bc 5779 0c3d 2719 c0bc
00000170: 935c 673d fb58 cdbb 01a6 70bc 17dc b1bc
00000180: 8748 e0bc 90b6 5abc 522c 9f3d 0fa7 9c3d
00000190: 28b7 01be 8495 dabd d0f9 bf3d f87b 8bbd
000001a0: 5760 e33c c759 93bd 203b e13d 018b aabc
000001b0: b266 f93d 3302 b83d ddab 8f3d 029c dbbd
000001c0: ea3e ffbc 2d7c 44bd e301 393d 96cd b23b
000001d0: d998 febc 4159 b83c cfc1 02bc 6c25 223d
000001e0: 0beb 1bbc ce61 ff3a 05d7 80bd eeee 2cbd
000001f0: ec7a e3bc 565c 403d 89ba a63d f0c4 063e
00000200: ca66 d4bd fa16 ffbd 48ff b63d e081 02be
00000210: 2ea7 ba3d 44f4 0ebd c374 083e 0c46 bcbd
00000220: 8b56 dd3d cd0d d43d 591e aa3d 3f6f 04be
00000230: eac2 f2ba 79a9 61bd 7b29 e23c 647d ae3d
00000240: 2ad0 27bd d0fa 8a3d db4c 58bc 1099 ac3d
00000250: fcca c3bd b478 873d 6393 07bd d887 b7bd
00000260: aff3 8cbd 762c 813d 9234 aa3d 8e5a 5f3d
00000270: 8943 96bd 8794 76bd 3f2c 593d 7ff9 b7bd
00000280: a1d2 303c 94de 13bd 1510 d93d 34b3 5dbd
00000290: 6bd4 bc3d 95d9 803d 7172 dc3d 3606 a5bd
000002a0: c91b 493d 0c38 023d dc88 4dbd 803c 49bd
000002b0: f96d c23c 5523 bdbc 7bda e83c c44b 00bd
000002c0: 90bb 573d 744e 13bc 2d02 5e3d 4099 213d
000002d0: f36d 793d a840 47bd ffd6 3ebd 77e4 6bbd
000002e0: 7f10 c73d 9a4d b83d b6f5 64bd 51c7 bc3d
000002f0: a782 57bc 778c a23d c365 dcbd 4845 a03c
00000300: 3898 b6bd f1e4 cebd cea7 68bd 8fcf 813d
-0.07000711 -0.057212245 0.08292227 0.07097494 -0.029002057 0.10759315 -0.045532156 0.042973652
-0.086487144 0.045404073 -0.070673436 -0.08222982 -0.053791977 0.07951251 0.046669696 0.030245371
-0.05620804 -0.040075857 0.059552394 -0.06578847 0.045983914 -0.016377416 0.061511178 -0.04000028
0.05058296 0.0449776 0.052222747 -0.080372036 -0.14356492 -0.174601 0.15041053 0.14429067
-0.14248756 0.15207037 -0.046081446 0.05756962 -0.16179362 0.06794679 -0.17982803 -0.13210559
-0.055621423 0.12609841 0.00016623919 0.051567215 -0.093456365 -0.024401749 0.048245206 -0.068667255
0.016855214 -0.056856986 0.09768547 -0.037657678 0.07469011 0.0898427 0.056844506 -0.09435137
-0.012505255 -0.001466414 0.010191059 0.001609332 0.008125532 -0.0073315892 -0.01349382 0.002841176
-0.01759473 -0.01884739 0.03151657 -0.008370192 0.015952721 -0.034818098 -0.019056113 -0.03865457
0.012150287 0.030624546 -0.008391842 0.014552831 0.0014784677 -0.009867221 -0.026673328 0.023887178
-0.013166397 -0.06267477 0.0036678605 0.029507577 0.035637964 -0.0027762202 -0.0044804835 0.02722237
0.0044486593 -0.0140961455 0.034295406 -0.023449494 0.05648477 -0.006266711 -0.014688016 -0.021711392
-0.027378334 -0.01334919 0.07772125 0.076490514 -0.12667525 -0.10673049 0.0937382 -0.068107545
0.0277559 -0.07194858 0.10997605 -0.020818235 0.12177791 0.089847945 0.07015202 -0.107231155
-0.03115793 -0.047969986 0.045167815 0.0054566367 -0.031078743 0.022503497 -0.007980778 0.03958647
-0.009516488 0.0019484104 -0.06291012 -0.04222005 -0.027768575 0.04696306 0.081410475 0.13161063
-0.10371168 -0.12455554 0.0893541 -0.12744856 0.09113918 -0.03490092 0.13325791 -0.09193048
0.108075224 0.10354195 0.083065696 -0.12933062 -0.0018521224 -0.055093262 0.02760767 0.0852001
-0.040970005 0.0678612 -0.0132019175 0.08427632 -0.095602006 0.06614819 -0.033099543 -0.08961457
-0.068824165 0.063073084 0.08310808 0.05452972 -0.073371 -0.06020024 0.053020712 -0.089831345
0.010792405 -0.03610094 0.105987705 -0.05412598 0.09220203 0.062915005 0.107640155 -0.08057825
0.049098764 0.03179173 -0.050179347 -0.049129963 0.02373408 -0.023088137 0.028424492 -0.031322256
0.052669108 -0.008990873 0.054201294 0.03945279 0.06089587 -0.048645645 -0.046591755 -0.057590928
0.09719943 0.08999176 -0.05589839 0.09217704 -0.013153709 0.07936948 -0.10761597 0.019564286
-0.08915752 -0.10102261 -0.056800656 0.06338417

encoder.encoder.layer.0.attention.output.dense.bias f4 [14]
00000000: 0000 0000 0000 0000 0000 0000 0000 0000
00000010: 0000 0000 0000 0000 0000 0000 0000 0000
00000020: 0000 0000 0000 0000 0000 0000 0000 0000
00000030: 0000 0000 0000 0000
0.0 0.0 0.0 0.0 0.0 0.0 0.0 0.0
0.0 0.0 0.0 0.0 0.0 0.0

encoder.encoder.layer.0.attention.output.LayerNorm.weight f4 [14]
00000000: 0000 803f 0000 803f 0000 803f 0000 803f
00000010: 0000 803f 0000 803f 0000 803f 0000 803f
00000020: 0000 803f 0000 803f 0000 803f 0000 803f
00000030: 0000 803f 0000 803f
1.0 1.0 1.0 1.0 1.0 1.0 1.0 1.0
1.0 1.0 1.0 1.0 1.0 1.0

encoder.encoder.layer.0.attention.output.LayerNorm.bias f4 [14]
00000000: 0000 0000 0000 0000 0000 0000 0000 0000
00000010: 0000 0000 0000 0000 0000 0000 0000 0000
00000020: 0000 0000 0000 0000 0000 0000 0000 0000
00000030: 0000 0000 0000 0000
0.0 0.0 0.0 0.0 0.0 0.0 0.0 0.0
0.0 0.0 0.0 0.0 0.0 0.0

encoder.encoder.layer.0.intermediate.dense.weight f4 [973, 14]
00000000: c8bd dbbc b2ea d8bb a4f1 66bb c8c7 babb
00000010: 47f0 5d3c 68e3 a9bc 416b 1dbc 2737 95bc
00000020: e2aa 21bd f7b2 b93c 5b4c 88bc 0716 393b
00000030: 4a54 9c3b 799f bdbb 57f8 9f3c 35c9 bdbb
00000040: 5bde 2d3d 84a7 103c 6a9e ad3c 81c0 b4bc
00000050: 3e97 c9bc f96a 9abc 065d 06bd e7c6 8eba
00000060: 7ab4 833d 02c4 1d3d e45a b93b a0de b3bc
00000070: 8f72 41bd 0177 1abc 73dc e2bb 3548 493c
00000080: 097e 8abc 0e4f 94bc 2ab2 57bc b41b 763d
00000090: 38b1 a4bc 34a2 5c3d 840b 5fbd 58d5 0d3d
000000a0: c40e 733c 92ff f93b b9e8 5abc 3afe 8dbc
000000b0: 833c d13c bb31 35bd a7c6 a9bc 8884 ef3c
000000c0: 450a a4bb c88e e0bc e2c6 67bc 5b79 dcbc
000000d0: f2b4 873b d3d2 6fbb 4b0b b23b beab 8fbb
000000e0: eb23 01bd fa2a ddbc a79b 023c 449c 26bd
000000f0: 4602 d0bb e766 aa3c 4bfc 003c ddf3 0fbd
00000100: c830 af3b cade 43bd 1530 cd3c 1f49 01bd
00000110: 8ba5 c4bb ef1a bdbc 4235 74bb f2ae 8ebb
00000120: c7aa 2fbc e1c6 f63c 2e9e 333c 0823 c23b
00000130: f621 6e3c 4f7b 553c bc04 1e3d 5faf f9bb
00000140: 7fb0 dcbc f5f1 103d 50ee e6bc ebe9 78bc
00000150: d919 89bc 8c50 513c 74c1 dbbc e0fc cb3b
00000160: ca3d afbc a48b 44bc fb73 f43c edc5 d83c
00000170: f551 b2bb 29e5 90ba 93bd 25bc 7c22 873c
00000180: 9564 a6bc 2f1b c33c 40fb 46bc c429 b7ba
00000190: 03b9 cebb 61b5 95bb 36de 25bd f493 86bc
000001a0: d574 0ebc 6be5 d33b ada3 9e3c 6776 82bc
000001b0: cf32 f13c 4d86 abbb 27ad d9ba 846b 94bb
000001c0: 5ec1 8dbb c78d 2a3d a12e bb3c 40dd 023c
000001d0: 5a3f b4b9 ad6b cbbb 8a84 b2bc 6f0a db3c
000001e0: c469 a7bc 39ce 513d 6b87 893b 90aa 54bb
000001f0: fde2 823c 8338 67bd 5d40 4a3d 6703 4ebc
00000200: d6ab a63c 2ab0 c4bb aa7b 643c ca65 203d
00000210: fecf 27bc 59e3 5fbc 32be 4d3c d1a0 113b
00000220: 89f8 57bc 61e5 8d3c 9e05 99bc 1508 8fbc
00000230: b696 5ebc b459 d8bc c2bb 313d 5cde d4bc
00000240: 5899 6d3c fde5 bf3c 49c6 30bd e637 9c3a
00000250: 37f7 453d 5bd6 88bd 533c 97ba 5fb7 cebc
00000260: 0b02 413c b6b9 393d 3c84 54ba ecd7 87bc
00000270: fb42 2a3d 5c9d eb39 20ae 9a3b 06d0 b13b
00000280: 761e 42bc 9017 91bc 3fdd 223c 9b83 df3b
00000290: 6443 2a3d 2852 aabc 8d01 18bd 98d4 1f3c
000002a0: 7a1c 12bc 1208 74bc a4c8 0a3d a52c e83b
000002b0: 4c77 4fbc a769 4dbc a81e 803d 6e3b cf3c
000002c0: d926 073d 0256 f7bc a4ec cd3c 5a26 e7bc
000002d0: bec0 0ebc 6420 09bd c020 073d cb8f 733c
000002e0: 482d 11bd 949e 06bd a0c1 103c 84f2 2abb
000002f0: 21a4 913c 30ef f93a 01e0 d33b 834d f7bb
00000300: e8f2 183d 434c f1bc 1679 c7bc 2698 54bd
00000310: beb8 c0bb c67b 8cbb ca10 88bc 18e6 be3c
00000320: 46fd afbc 1f83 56bc 1a95 b3bc 9efc b73c
00000330: 8146 3dbd a1c4 d83a d50d ddbc bec9 afbb
00000340: 63a9 e93c 22d3 8f3c 15e5 3c3d 2ec9 b6bc
00000350: 0034 1bbd fdec 85bc 9b48 cbbc 9946 b8bc
00000360: ad19 32bc b68a cdbc 55f9 c3b9 6758 0dbd
00000370: 0d69 d13c 8dfc 9eba aff8 0a3b 84d3 39bc
00000380: bd1a 273c cedb 003d 2d48 ce3c 12b5 1e3c
00000390: f574 283d 073d 99bc 67b0 0b3d 0a2c 84bb
000003a0: 0951 913c 78a2 063d 3f01 be3c 4925 e0bc
000003b0: aca3 c8bc 4e6a 043c 4be8 693b a0fb b0bc
000003c0: 0cdb a6bc 000c 073d bbf3 cabb 0b56 953c
000003d0: e0b2 773b 34a8 253d 3ee0 e8bc d1d5 88bb
000003e0: 3613 103d 5505 5f3b 76cb 1ebd eb7b 82bc
000003f0: 3d19 e0bc 9112 b9bc eeb6 a8bc 59c8 03bb
-0.026823893 -0.0066197747 -0.0035239244 -0.0057000853 0.013546056 -0.020738319 -0.009608091 -0.018214775
-0.039469607 0.022668345 -0.016637972 0.002824189 0.00477079 -0.005786833 0.019527597 -0.005791808
0.042448383 0.008829001 0.021193702 -0.02206445 -0.02460825 -0.018849837 -0.032803558 -0.0010893018
0.064309075 0.038517006 0.005656587 -0.021956742 -0.047228392 -0.009427787 -0.0069232523 0.012285282
-0.016905801 -0.018104102 -0.013165036 0.060085014 -0.020104036 0.053865626 -0.05445434 0.03462729
0.014835063 0.0076293433 -0.0133611495 -0.017333139 0.02554155 -0.04423688 -0.020724608 0.029238
-0.005006107 -0.027411833 -0.014146538 -0.026913336 0.0041414434 -0.0036594167 0.005433475 -0.004384487
-0.031528395 -0.026998032 0.007971681 -0.04067637 -0.0063479273 0.02080102 0.007872651 -0.035144676
0.0053463914 -0.04781989 0.025047341 -0.031563874 -0.0060011796 -0.023084132 -0.003726319 -0.004354351
-0.010721869 0.03012413 0.010963006 0.005924586 0.014534464 0.013029887 0.038578734 -0.007619783
-0.026939629 0.035387 -0.028189808 -0.015192489 -0.016735958 0.0127755515 -0.026825644 0.0062252134
-0.021391768 -0.011996184 0.02984046 0.026461566 -0.005441899 -0.0011054623 -0.010115999 0.016495936
-0.020311633 0.023816673 -0.012144864 -0.0013974239 -0.006308676 -0.004568741 -0.04049512 -0.016427971
-0.008694847 0.0064665577 0.019365156 -0.0159256 0.029443173 -0.0052345158 -0.001660739 -0.0045294184
-0.0043260297 0.041639116 0.022849383 0.00798732 -0.00034379476 -0.0062079043 -0.021791715 0.026738374
-0.020436175 0.05122206 0.0041970513 -0.0032450296 0.015977377 -0.05645038 0.049377788 -0.012574053
0.02034561 -0.0060024457 0.013945499 0.039159574 -0.01024246 -0.013665044 0.012557553 0.0022221098
-0.013181814 0.01732129 -0.018679436 -0.017459909 -0.013585737 -0.026409961 0.04339195 -0.025984935
0.014501892 0.023425097 -0.04315785 0.0011918515 0.048331466 -0.0668151 -0.0011538364 -0.025233923
0.011780272 0.045343123 -0.00081068627 -0.016582452 0.041567784 0.00044939935 0.0047204643 0.0054264097
-0.011848083 -0.01771143 0.0099404445 0.0068211085 0.041568175 -0.020791128 -0.037110854 0.009755276
-0.008917922 -0.014894502 0.033882752 0.0070854 -0.01266272 -0.0125373965 0.06255847 0.025296893
0.032996032 -0.030192379 0.025137253 -0.02821653 -0.0087129455 -0.033478156 0.032990217 0.014865826
-0.035443574 -0.032866076 0.008835226 -0.0026084492 0.017778458 0.0019068476 0.0064659123 -0.007547082
0.03734103 -0.02945531 -0.02434973 -0.051902913 -0.005881398 -0.004287216 -0.016609568 0.023303077
-0.021483075 -0.013092785 -0.021921683 0.022459324 -0.046209816 0.0016538092 -0.026984135 -0.0053646257
0.028523153 0.01755673 0.046116907 -0.022312727 -0.037891388 -0.016348356 -0.024814894 -0.022494601
-0.010870379 -0.025090557 -0.00037379065 -0.034508135 0.025562787 -0.0012129709 0.0021205356 -0.011341933
0.010199246 0.031459622 0.0251809 0.009686725 0.041127164 -0.018705858 0.034103777 -0.00403357
0.017738836 0.032869786 0.023193954 -0.027361529 -0.024492107 0.008081986 0.0035691436 -0.02160436
-0.020368122 0.03297043 -0.0061936057 0.018229505 0.0037795827 0.040443614 -0.02842724 -0.0041758795
0.03517457 0.0034030278 -0.038768254 -0.01592823 -0.027355785 -0.022591861 -0.02059504 -0.002010843
